…
2024-04-28 12:12:50.588034: I tensorflow/core/common_runtime/gpu/gpu_device.cc:1418] Created TensorFlow device (/job:localhost/replica:0/task:0/device:GPU:3 with 43454 MB memory) -> physical GPU (device: 3, name: NVIDIA A40, pci bus id: 0000:c1:00.0, compute capability: 8.6)
WARNING:tensorflow:Please add `keras.layers.InputLayer` instead of `keras.Input` to Sequential model. `keras.Input` is intended to be used by Functional model.
Model: "sequential"
_________________________________________________________________
Layer (type)                 Output Shape              Param #   
=================================================================
conv1d (Conv1D)              (None, 2199, 32)          544       
_________________________________________________________________
max_pooling1d (MaxPooling1D) (None, 1099, 32)          0         
_________________________________________________________________
conv1d_1 (Conv1D)            (None, 1098, 64)          4160      
_________________________________________________________________
max_pooling1d_1 (MaxPooling1 (None, 549, 64)           0         
_________________________________________________________________
conv1d_2 (Conv1D)            (None, 548, 128)          16512     
_________________________________________________________________
max_pooling1d_2 (MaxPooling1 (None, 274, 128)          0         
_________________________________________________________________
flatten (Flatten)            (None, 35072)             0         
_________________________________________________________________
dropout (Dropout)            (None, 35072)             0         
_________________________________________________________________
dense (Dense)                (None, 128)               4489344   
_________________________________________________________________
dense_1 (Dense)              (None, 6)                 774       
=================================================================
Total params: 4,511,334
Trainable params: 4,511,334
Non-trainable params: 0
_________________________________________________________________
'tuple' object has no attribute 'X'
Traceback (most recent call last):
  File "/home/tuo72868/ece_8527_final/cnn/src/train.py", line 97, in <module>
    
  File "/home/tuo72868/ece_8527_final/cnn/src/train.py", line 85, in main
…
